checkpoint2000.pth (torch_old, 45338 bytes, 8 tensors)

fc1.weight f4 [64, 37]
0.2870395 -0.21871145 -0.5552261 -0.31949288 -1.4879466 -0.03278363 -0.12797756 0.090059765
0.14602414 -0.3667395 -0.30504644 0.06743616 -0.076003544 -0.04638484 -0.10101665 0.16654488
0.14713193 -0.21031849 -0.6207147 -0.5370804 0.02654589 -0.047067374 0.3207815 -0.062753215
-0.1737782 -0.00014365696 0.22273755 -0.10135388 -0.4094541 0.11819251 0.016314553 -0.1064249
0.07804727 -0.19949554 -0.5049782 -0.20209527 -0.012579687 -0.18955566 0.13493519 -0.0061419685
0.22566879 0.41825104 -0.21145406 -0.17255987 -0.08626797 0.16756871 0.31812412 -0.24476305
-0.08186886 0.073755905 0.05440183 0.054402452 0.016686045 -0.060254455 0.079963036 -0.04424689
0.20115371 -0.4661986 -0.026067171 -0.11277056 0.36082274 0.2992154 -0.42318457 -0.02520238
0.31813243 -0.06757157 0.333211 -0.23664363 0.10031665 0.19387479 -0.14300516 -0.25024453
-0.09161262 -0.026088702 -0.2857059 0.20289096 0.10425866 -0.29658464 -0.04713062 -1.0517936
-0.12272662 0.26156273 -0.22755124 -0.21087834 -0.21799456 -0.44978032 0.14864492 0.2610697
-0.31540194 -0.2619703 0.14850877 -0.35764423 0.19455591 0.28564775 -0.70443565 0.14196895
0.14341618 -0.095454626 -0.08508324 -0.18508236 0.087298974 0.07466204 -0.3351523 -0.6799093
-0.39549115 -0.22089827 0.13242503 -0.41745943 -0.060593706 0.0021864008 0.015745576 0.5279654
-0.29556578 -0.38127172 -0.36039695 -2.4491472 0.0131000625 0.007393984 -0.017686721 0.04516171
0.022063898 0.028672433 0.019387037 0.038116995 0.061856337 0.030195983 0.03170345 -0.04877072
-0.10032604 -0.03604069 0.07317792 0.14591578 -0.0058862665 -0.0021666072 0.031376295 0.018976666
-0.009002851 0.028457075 0.14745007 0.18443264 0.3473299 0.09266241 0.022675686 0.053783838
0.051834933 -0.008233369 -0.010578929 0.009071291 -0.04422388 -0.086783275 -0.12737726 -0.16407649
0.01537879 0.4464104 -0.5240687 -0.8481964 -0.8452155 -2.3886218 0.014804232 0.017216241
-0.068002485 0.013252498 -0.0065815626 -0.07952032 -0.014669288 -0.059580572 0.07002618 0.21439502
0.04295201 -0.022382604 0.00764661 0.10504309 0.105784826 0.044427503 -0.04187412 0.10337516
0.1537425 0.2022343 0.09890243 0.08270344 0.09931387 0.24292292 0.28979784 0.024838928
0.013149703 0.020440437 -0.20362148 0.056249976 0.07651116 0.10365018 -0.10973522 0.548582
-0.30309018 -0.07359888 -0.21005896 -0.023964139 -0.045169197 -0.03731897 0.024399389 0.1456223
0.07093181 -0.057155807 0.18279608 -0.37794644 0.08320312 0.15435526 0.012129943 0.03467193
0.19936435 -0.87821853 -0.290247 -0.008999539 0.28479585 0.27161467 -0.23755878 0.19323511
-0.4714888 0.06895116 -0.77877265 -2.0998397 0.1812291 -0.020415781 0.30757633 -0.17856498
-0.8975805 -0.70585364 -1.3159199 0.17798007 -0.18288073 -0.06867984 -0.07609165 0.35789123
-0.06475157 -0.0822788 0.36229092 -0.090612754 0.017311977 -0.10455896 -0.1314184 0.08466996
-0.07680562 0.08994444 -0.3902734 0.114397116 0.21539742 -0.17124034 0.0123569565 -0.07646315
0.022679044 -0.15962799 -0.069351904 0.30895466 -0.098377615 -0.007286039 0.13542187 0.14457728
00000000: d7f6 923e e5f5 5fbe 4c23 0ebf 9294 a3be
00000010: 0975 bebf 2148 06bd 8d0c 03be 4171 b83d
00000020: 5a87 153e 48c5 bbbe 0c2f 9cbe f81b 8a3d
00000030: bfa7 9bbd 08fe 3dbd d1e1 cebd be8a 2a3e
00000040: c1a9 163e bb5d 57be 29e7 1ebf 1a7e 09bf
00000050: c476 d93c b8c9 40bd 793d a43e c284 80bd
00000060: eaf2 31be 9fa2 16b9 5015 643e 9f92 cfbd
00000070: f8a3 d1be ea0e f23d 19a6 853c 4cf5 d9bd
00000080: 3fd7 9f3d 8f48 4cbe 4046 01bf 10f2 4ebe
00000090: 081b 4ebc e11a 42be 732c 0a3e 9142 c9bb
000000a0: b815 673e 0025 d63e 6a87 58be 89b3 30be
000000b0: 43ad b0bd 2297 2b3e 2ae1 a23e 2aa3 7abe
000000c0: dcaa a7bd 560d 973d 74d4 5e3d 1bd5 5e3d
000000d0: 2cb1 883c 60cd 76bd a9c3 a33d 3a3c 35bd
000000e0: 3dfb 4d3e 95b1 eebe d28a d5bc 40f4 e6bd
000000f0: c2bd b83e c332 993e a6ab d8be 3975 cebc
00000100: 41e2 a23e f762 8abd a29a aa3e b552 72be
00000110: d172 cd3d 1d87 463e f26f 12be 0d20 80be
00000120: 669f bbbd f9b7 d5bc 0b48 92be a6c2 4f3e
00000130: 9085 d53d f1d9 97be 090c 41bd 2ca1 86bf
00000140: 1858 fbbd 8deb 853e 3103 69be 7ef0 57be
00000150: f739 5fbe 9b49 e6be 6036 183e edaa 853e
00000160: 5d7c a1be f920 86be af12 183e 251d b7be
00000170: aa39 473e 6c40 923e e555 34bf 4f60 113e
00000180: b1db 123e b77d c3bd 1f40 aebd 3b86 3dbe
00000190: cec9 b23d 69e8 983d 1599 abbe 890e 2ebf
000001a0: d17d cabe 2833 62be 6d9a 073e 3ebd d5be
000001b0: 1b31 78bd b849 0f3b defc 803c be28 073f
000001c0: 6654 97be 0c36 c3be f385 b8be d4be 1cc0
000001d0: a5a1 563c 3c49 f23b bee3 90bc 7cfb 383d
000001e0: 59bf b43c 73e2 ea3c 90d1 9e3c 9120 1c3d
000001f0: 125d 7d3d 915d f73c 7adb 013d cec3 47bd
00000200: bd77 cdbd 679f 13bd 4ede 953d f26a 153e
00000210: 95e1 c0bb a3fd 0dbb 6e84 003d f474 9b3c
00000220: b280 13bc d01e e93c 27fd 163e e9db 3c3e
00000230: 3ad5 b13e cac5 bd3d 5cc2 b93c 714c 5c3d
00000240: de50 543d 41e5 06bc 3f53 2dbc c19f 143c
00000250: 1924 35bd 6ebb b1bd 2f6f 02be ab03 28be
00000260: 52f7 7b3c e78f e43e 5e29 06bf 6623 59bf
00000270: 0b60 58bf 2edf 18c0 738d 723c 1309 8d3c
00000280: e344 8bbd 0121 593c 26aa d7bb 8ddb a2bd
00000290: 7457 70bc c20a 74bd e369 8f3d 5e8a 5b3e
000002a0: 72ee 2f3d b95b b7bc 6a90 fa3b d520 d73d
000002b0: b7a5 d83d 9df9 353d 3284 2bbd 5bb6 d33d
000002c0: ad6e 1d3e 8216 4f3e 5b8d ca3d 6c60 a93d
000002d0: 1265 cb3d c9c0 783e 6260 943e 027b cb3c
000002e0: da71 573c b472 a73c 2682 50be 6066 663d
000002f0: e2b1 9c3d 8c46 d43d dcbc e0bd df6f 0c3f
00000300: a32e 9bbe 02bb 96bd b219 57be 7150 c4bc
00000310: 5603 39bd c7db 18bd 3ae1 c73c 031e 153e
00000320: b244 913d 351c 6abd e52e 3b3e 3282 c1be
00000330: 6666 aa3d 4e0f 1e3e abbc 463c 2704 0e3d
00000340: 2b26 4c3e eed2 60bf 419b 94be cd72 13bc
00000350: c3d0 913e 1411 8b3e 9c42 73be 6ddf 453e
00000360: fb66 f1be 4436 8d3d a55d 47bf c663 06c0
00000370: 1f94 393e ff3e a7bc a57a 9d3e bdd9 36be
00000380: d6c7 65bf d3b2 34bf 1070 a8bf 6840 363e
00000390: 1645 3bbe 04a8 8cbd f0d5 9bbd 853d b73e
000003a0: 799c 84bd ca81 a8bd 327e b93e 2e93 b9bd
000003b0: d9d1 8d3c 0223 d6bd 8c92 06be 7267 ad3d
000003c0: 444c 9dbd ca34 b83d ead1 c7be 0949 ea3d
000003d0: 2491 5c3e a159 2fbe d574 4a3c b698 9cbd
000003e0: 67c9 b93c 8575 23be 5f08 8ebd 4e2f 9e3e
000003f0: 347a c9bd babf eebb 08ac 0a3e 110c 143e

fc1.bias f4 [64]
0.13411778 -0.1698019 -0.15973103 -0.090289384 0.20500648 -0.027315838 -0.122031584 0.14869054
0.08676915 -0.26226893 0.1691884 0.23688702 0.13423863 0.105559886 -0.019656308 -0.0050651226
0.053916603 0.050760146 -0.14297745 -0.05030241 -0.19672188 0.026518371 -0.08266423 -0.08420587
-0.047733225 0.14957233 -0.1285027 -0.14427312 0.039424896 0.13099734 -0.26367334 -0.21877062
0.1555117 0.003377435 -0.1516867 0.0010639144 -0.0698552 0.045602363 -0.12511325 -0.21037672
-0.044695403 -0.09805453 -0.11334598 0.16014968 -0.05177604 -0.16166747 -0.10471867 -0.35655847
-0.23053631 0.07273314 -0.27596328 0.2199061 -0.12715685 -0.12570333 -0.15887839 -0.111867
0.26321286 -0.038691625 -0.030496232 -0.010312896 0.025280204 0.15082267 0.022383368 -0.17873526
00000000: 2c56 093e 8de0 2dbe 8890 23be a4e9 b8bd
00000010: 38ed 513e 77c5 dfbc b2eb f9bd 5542 183e
00000020: 06b4 b13d 1d48 86be b93f 2d3e 8392 723e
00000030: da75 093e c82f d83d 4406 a1bc 54f9 a5bb
00000040: a8d7 5c3d dfe9 4f3d ae68 12be e609 4ebd
00000050: 7671 49be 0e3d d93c dd4b a9bd 2174 acbd
00000060: ea83 43bd 7d29 193e 3696 03be 55bc 13be
00000070: 007c 213d 2b24 063e 3100 87be 6805 60be
00000080: 763e 1f3e f557 5d3b c253 1bbe 0b73 8b3a
00000090: 3e10 8fbd 8bc9 3a3d b01d 00be ff6c 57be
000000a0: 8712 37bd d0d0 c8bd f021 e8bd 47fe 233e
000000b0: 1d13 54bd 288c 25be be76 d6bd d58e b6be
000000c0: b611 6cbe 1df5 943d 0f4b 8dbe 112f 613e
000000d0: 6835 02be 60b8 00be 04b1 22be 871a e5bd
000000e0: d6c3 863e 1c7b 1ebd 3cd3 f9bc 6cf7 28bc
000000f0: 6e18 cf3c 4271 1a3e 535d b73c 6006 37be

fc2.weight f4 [64, 64]
-0.19518678 0.12390697 -0.15077423 -0.24024281 -0.33720708 -0.3572119 -0.045595683 -0.022905974
-0.17487605 0.15352695 -0.030090282 -0.40045044 -0.18933316 0.13890025 -0.63800126 0.0857804
0.11696073 0.14672667 0.26892385 -0.7699201 0.10568625 -0.20344304 -0.35213816 -0.56969804
-0.06294871 0.12720355 0.15808327 0.025983779 -0.13315353 0.1929234 0.19268028 0.04627255
0.16905202 -0.15133432 -0.16079845 -0.3165775 0.011762826 -0.04041469 0.15394707 -0.044914093
-0.026287183 -0.087275535 -0.22945356 -0.49704975 0.13470809 0.025433958 0.0327067 -0.2839158
-0.0312706 -0.16479929 -0.082587615 -0.010401169 -0.22494204 -0.022195501 -0.44292292 0.19433312
0.19147076 0.09412302 -0.16174094 0.18061663 0.18377186 0.25551236 -0.4263586 -0.14346194
0.102002956 0.049240835 -0.08219134 0.3376338 -0.26966527 0.17841306 -0.5641329 0.38073552
-0.072836645 -0.09350654 -0.10057348 -0.16546236 -0.021178652 -0.09636267 -0.10600518 -0.35360572
0.104271956 0.12784775 0.28476083 -0.22274415 -0.35880083 0.07050846 -0.38198835 -0.062441844
-0.22704305 -0.07483397 -0.32086584 -0.5557202 0.058395434 0.19647862 -0.037982576 -0.55380946
-0.65075225 0.003203215 -0.42890248 -0.15993199 -0.12418465 -0.02807967 -0.082453124 -0.31560054
0.07955913 -0.10550347 0.022890424 -0.2522987 -0.02232012 -0.8279861 0.006484552 -0.30440682
-0.729555 -0.07252289 0.1039995 0.37662333 0.108557105 -0.093029894 0.11488157 0.10011807
0.015256128 -0.22680786 0.12932906 0.14824937 0.22746772 0.043088585 -0.20599347 0.12846299
-0.23590006 -0.035652783 0.25241747 -0.36818823 -0.04649433 0.11484659 0.35117647 -0.14635684
0.09012618 -0.10595298 -0.09212742 -0.14107847 0.21355541 0.01163748 0.04605256 0.038214836
-0.022588076 -0.18044043 -0.7282635 -0.5149827 -0.11327232 0.03586757 -0.040686432 -0.23984802
-0.16766666 -0.099253535 0.106730334 0.1726488 0.080858745 0.56771743 0.07428005 0.35395628
-0.28258362 -0.06192653 0.06504334 -0.11761246 0.13163343 -0.11225808 -0.20309015 0.05681875
0.45997158 -0.09883742 -0.16246778 -0.3941681 -0.10200187 -0.11995068 -0.07324306 -0.26305792
-0.028692896 0.023291862 -0.1679477 -0.15459372 0.061784174 0.07897813 -0.4054516 0.033995092
-0.2316295 -0.41514698 -0.0125311185 0.46494082 -0.08044183 0.29778263 -0.08281098 -0.30471104
-0.3465442 0.09872816 -0.20338592 0.2371864 0.22359031 -0.019168984 0.21171576 0.030160105
-0.12361725 -0.13146749 -0.05797456 0.26227406 -0.24508786 -0.06809361 0.124299295 -0.11282224
-0.24027112 -0.22536333 0.20033324 0.060772046 -0.11382219 -0.053613074 0.095875606 -0.12220051
0.18813357 0.035641156 0.049895283 0.08028053 -0.19086717 -0.3734853 0.5082605 -0.24809246
0.09370507 -0.13553382 -0.017822547 -0.045397248 -0.10994665 0.0064778016 0.56646395 0.052730028
-0.4286779 0.11538161 -0.058651917 -0.27719536 0.055264026 0.06448191 0.18083829 -0.012832483
0.1434157 -0.13742104 -0.32809702 0.043700118 0.030680856 -0.14116716 -0.0072395727 0.0083365645
-0.39714864 -0.15851952 -0.034005947 -0.2714848 -0.11081488 -0.1795596 -0.18936484 -0.07366911
00000000: 0bdf 47be f0c2 fd3d 8f64 1abe 3602 76be
00000010: 68a6 acbe 7ae4 b6be 8ac2 3abd 4fa5 bbbc
00000020: b512 33be 2b36 1d3e e57f f6bc d707 cdbe
00000030: 8de0 41be de3b 0e3e 0d54 23bf a2ad af3d
00000040: 1b89 ef3d 843f 163e 63b0 893e 7c19 45bf
00000050: 0872 d83d 5f53 50be 744b b4be bbd7 11bf
00000060: 41eb 80bd a641 023e 95e0 213e efdb d43c
00000070: 6659 08be b68d 453e fb4d 453e 4988 3d3d
00000080: f91b 2d3e 62f7 1abe 59a8 24be 7216 a2be
00000090: deb8 403c e089 25bd 4da4 1d3e d7f7 37bd
000000a0: 3858 d7bc 84bd b2bd e0f5 6abe 4e7d febe
000000b0: ebf0 093e e05a d03c 76f7 053d 695d 91be
000000c0: 9a15 00bd 25c1 28be b223 a9bd aa69 2abc
000000d0: 3557 66be 57d3 b5bc cbc6 e2be 43ff 463e
000000e0: e910 443e 92c3 c03d 6b9f 25be 91f3 383e
000000f0: b12e 3c3e 84d2 823e ad4b dabe b0e7 12be
00000100: ede6 d03d c2b0 493d ef53 a8bd 56de ac3e
00000110: 9111 8abe eab1 363e 046b 10bf c4ef c23e
00000120: 612b 95bd 5b80 bfbd 78f9 cdbd f76e 29be
00000130: da7e adbc cb59 c5bd 3e19 d9bd cf0b b5be
00000140: 898c d53d 85ea 023e 2ccc 913e 0b17 64be
00000150: beb4 b7be bd66 903d fa93 c3be 05c3 7fbd
00000160: f97d 68be 8d42 99bd 8748 a4be ae43 0ebf
00000170: 0d30 6f3d b131 493e 9e93 1bbd 75c6 0dbf
00000180: b397 26bf 08ed 513b 1b99 dbbe 36c5 23be
00000190: 8654 febd 5607 e6bc 2fdd a8bd 6596 a1be
000001a0: e6ef a23d 3412 d8bd b384 bb3c 4c2d 81be
000001b0: afd8 b6bc e6f6 53bf 5d7c d43b 36db 9bbe
000001c0: 1ec4 3abf e286 94bd b1fd d43d c6d4 c03e
000001d0: 3053 de3d 7586 bebd 0747 eb3d b40a cd3d
000001e0: d7f4 793c 5240 68be d66e 043e afce 173e
000001f0: 4ced 683e a87d 303d f4ef 52be cd8b 033e
00000200: c98f 71be a708 12bd dd3c 813e 2b83 bcbe
00000210: d770 3ebd b034 eb3d 67cd b33e 91de 15be
00000220: 1394 b83d e0fd d8bd 4dad bcbd e076 10be
00000230: 45ae 5a3e 21ab 3e3c 9ca1 3c3d 2987 1c3d
00000240: a10a b9bc 60c5 38be 7a6f 3abf e8d5 03bf
00000250: 51fb e7bd e0e9 123d d1a6 26bd b89a 75be
00000260: cfb0 2bbe 7045 cbbd 6f95 da3d d9ca 303e
00000270: 4599 a53d ee55 113f 2420 983d c239 b53e
00000280: cdae 90be aca6 7dbd 7135 853d cdde f0bd
00000290: eaca 063e 90e7 e5bd ddf6 4fbe c7ba 683d
000002a0: 6581 eb3e 466b cabd f45d 26be 67d0 c9be
000002b0: 5be6 d0bd b4a8 f5bd 7500 96bd 87af 86be
000002c0: 5d0d ebbc 93ce be3c 7bfa 2bbe d14d 1ebe
000002d0: 6711 7d3d 49bf a13d 5a97 cfbe 703e 0b3d
000002e0: 4930 6dbe 258e d4be 524f 4dbc b90c ee3e
000002f0: b0be a4bd f776 983e ce98 a9bd 1603 9cbe
00000300: 3e6e b1be fd31 ca3d 6644 50be fee0 723e
00000310: dcf4 643e 4608 9dbc 04cc 583e 5312 f73c
00000320: 0a2b fdbd 6a9f 06be bb76 6dbd c948 863e
00000330: 50f8 7abe aa74 8bbd a190 fe3d 590f e7bd
00000340: a209 76be a5c5 66be 2824 4d3e 1cec 783d
00000350: 9c1b e9bd 6299 5bbd 6e5a c43d 4344 fabd
00000360: 16a6 403e 76fc 113d ff5e 4c3d 1e6a a43d
00000370: af72 43be 7739 bfbe 5c1d 023f f30b 7ebe
00000380: 72e8 bf3d 61c9 0abe 9700 92bc 77f2 39bd
00000390: b62b e1bd bd43 d43b c803 113f 71fb 573d
000003a0: ab7b dbbe 324d ec3d fe3c 70bd 8dec 8dbe
000003b0: 885c 623d 170f 843d ac2d 393e 563f 52bc
000003c0: 91db 123e 1ab8 0cbe 55fc a7be e5fe 323d
000003d0: 6b56 fb3c 208e 10be f039 edbb 1696 083c
000003e0: 1157 cbbe f152 22be d249 0bbd 0e00 8bbe
000003f0: e9f2 e2bd 79de 37be dbe8 41be d5df 96bd

fc2.bias f4 [64]
-0.09341299 -0.08415397 0.07819528 0.19625087 -0.00433923 0.09195569 -0.07515019 0.0020380323
0.31777495 0.13431773 -0.12296148 0.030622022 -0.03715079 -0.05180044 -0.17199045 0.17652632
0.08138307 -0.0006322226 -0.2271701 0.009320506 0.1571584 -0.050910175 0.041880276 -0.10800265
-0.090216935 -0.080593534 0.101036154 -0.009888949 -0.14210534 0.02242947 0.1585795 -0.17378595
0.06412957 -0.025935687 0.30081096 0.02338776 -0.102486685 -0.0048648044 -0.059483 -0.15175658
-0.07201152 0.31235093 -0.09512856 -0.1997749 -0.032690454 -0.051787265 -0.11544506 -0.054547105
-0.033072244 -0.122536734 -0.27569094 0.3397404 -0.1489481 -0.03549378 0.020970693 -0.08090245
-0.12849529 -0.15791903 0.010369627 0.099999614 0.35667875 0.070326656 0.019344103 -0.1849822
00000000: 4f4f bfbd eb58 acbd d924 a03d fdf5 483e
00000010: 1930 8ebb 4453 bc3d 58e8 99bd 8290 053b
00000020: 66b3 a23e 968a 093e 3ad3 fbbd 09db fa3c
00000030: 6d2b 18bd b32c 54bd 441e 30be 51c3 343e
00000040: 2bac a63d bebb 25ba 479f 68be 09b5 183c
00000050: 22ee 203e 3087 50bd a78a 2b3d 7e30 ddbd
00000060: a8c3 b8bd 390e a5bd 0bec ce3d 4205 22bc
00000070: 1084 11be 02be b73c aa62 223e f2f4 31be
00000080: 5d56 833d 1477 d4bc e503 9a3e b097 bf3c
00000090: 8ae4 d1bd f068 9fbb 72a4 73bd 1466 1bbe
000000a0: c77a 93bd 76ec 9f3e c3d2 c2bd cb91 4cbe
000000b0: 6de6 05bd e21e 54bd 766e ecbd c96c 5fbd
000000c0: c376 07bd 8af4 fabd 5d27 8dbe 74f2 ad3e
000000d0: da85 18be ed61 11bd bbca ab3c 2fb0 a5bd
000000e0: 4594 03be 87b5 21be 5ee5 293c 99cc cc3d
000000f0: 999e b63e 6c07 903d 8677 9e3c f96b 3dbe

fc3.weight f4 [64, 64]
0.07182916 0.31556955 -0.5465686 -0.2471441 -0.16726542 -0.012717442 0.14335515 -0.07109556
-0.0230622 -0.25944102 0.26587886 0.19286384 0.1400433 -0.07386284 -0.16421543 0.09066931
-0.10207394 0.07903013 0.27076095 0.05676335 0.28955844 -0.26042682 0.25151786 0.05504963
-0.2510979 -0.511652 0.3077376 0.10188126 0.001994118 0.044573084 -0.28597105 -0.25301203
0.39656365 0.16348664 -0.09636806 -0.05630185 0.24387795 -0.00080632645 -0.26100743 0.37944216
-0.4127061 -0.004137305 0.079851985 0.16080812 0.012414922 0.14878805 0.20000322 -0.13572806
0.033854567 -0.07507851 0.11158466 0.0619916 0.17126879 0.53814065 0.050980948 -0.15145391
-0.076912336 0.51115257 0.282224 -0.11081129 -0.14569128 0.12031063 -0.00048826367 -0.06756891
-0.07646751 0.011153712 -0.076195054 0.12395329 0.010488433 -0.008150377 -0.09989124 -0.018443696
-0.09113441 0.12236691 0.17749794 -0.140649 -0.008151901 -0.15752988 -0.27245328 -0.1803024
-0.008293797 0.13402101 -0.15424512 -0.2746504 0.12435204 0.34337327 0.03988368 0.1897684
0.09906271 0.050087802 0.051028572 0.08778716 -0.28974628 -0.07352797 0.13955353 0.18395264
0.07264241 -0.010015959 0.18003555 0.13446651 0.01711536 -0.23562708 -0.002864951 0.015178309
0.0011570127 0.22549503 0.003247355 -0.26860282 -0.3446856 -0.08367445 0.09252909 -0.2502007
0.035900008 0.10236943 0.007610826 0.034773976 0.16379716 -0.06392678 -0.24996787 0.07753491
-0.22366165 -0.28818345 0.17757083 -0.09908112 0.088533185 -0.42952833 -0.24038881 0.2366597
-0.31748113 -0.24605703 -0.06895806 0.09019075 0.035370935 -0.2586602 -0.4023338 -0.072157264
-0.015368474 0.3268098 -0.05589029 -0.09539352 0.2779417 -0.12716885 -0.49875402 -0.7527422
-0.2657935 0.04699253 0.30350995 -0.20353296 0.25389868 0.20359975 -0.009672798 0.10934068
0.12637092 -0.20902653 -0.066408984 -0.022816163 0.0011248303 -0.07866602 0.14790615 -0.3954404
0.0955676 0.17744687 0.122768246 0.18255065 -0.33044937 -0.231176 0.2531432 -0.27639565
0.20230472 -0.05298742 0.52246326 0.17971031 -0.01509799 -0.05179976 0.033451665 0.38048828
-0.2741577 0.12357465 -0.0654717 0.0927012 -0.19196388 -0.20311984 0.53791887 0.12699637
-0.2808214 0.19276057 0.13367055 -0.05736346 -0.047813702 0.34570646 -0.3193602 0.27492216
0.014728048 0.06789621 -0.009713875 -0.11365883 -0.10273764 0.0019463021 -0.07281913 0.009721645
-0.017183555 0.036970668 0.08319904 0.05359738 0.091902904 -0.027876867 0.035027478 -0.069244504
0.07825727 -0.033573013 -0.011942022 0.088931344 -0.07609413 0.136839 -0.05804089 -0.0044335527
-0.0347684 -0.09885314 -0.03477035 0.051208988 0.12626353 -0.082161486 -0.124875754 0.1441102
-0.107367344 0.053804267 -0.099526614 -0.035411555 -0.057734735 0.019799028 -0.005190395 0.00825551
-0.15295725 0.043614298 0.1653787 -0.11022182 0.071371526 -0.13054477 0.14846629 -0.015399488
-0.0649664 -0.12513092 0.20129968 -0.05021885 0.014416791 -0.049306594 0.08281441 0.035895675
-0.06320875 -0.12518409 -0.08235925 -0.15981148 -0.1935887 0.028222177 -0.059220415 0.037873417
00000000: 2b1b 933d 5592 a13e ebeb 0bbf 5813 7dbe
00000010: a047 2bbe d15c 50bc b1cb 123e 8d9a 91bd
00000020: f0ec bcbc 74d5 84be 4621 883e 197e 453e
00000030: 8367 0f3e 6745 97bd 1728 28be d5b0 b93d
00000040: 240c d1bd 8cda a13d 2ea1 8a3e b080 683d
00000050: 0141 943e aa56 85be f3c6 803e b97b 613d
00000060: e78f 80be a0fb 02bf c88f 9d3e 1fa7 d03d
00000070: c0af 023b 4492 363d cc6a 92be cb8a 81be
00000080: 640a cb3e 0b69 273e 9e5c c5bd c59c 66bd
00000090: 24bb 793e a75f 53ba c4a2 85be 3e46 c23e
000000a0: 374e d3be 3b92 87bb 7089 a33d e2aa 243e
000000b0: f567 4b3c e55b 183e a5cd 4c3e 4cfc 0abe
000000c0: 16ab 0a3d c3c2 99bd 8086 e43d e7ea 7d3d
000000d0: 1661 2f3e 96c3 093f 66d1 503d bc16 1bbe
000000e0: 3784 9dbd e5da 023f aa7f 903e 08f1 e2bd
000000f0: 1830 15be 6b65 f63d a4fd ffb9 9261 8abd
00000100: ff9a 9cbd 0fbe 363c 270c 9cbd 39db fd3d
00000110: add7 2b3c 2989 05bc c793 ccbd 3c17 97bc
00000120: ada4 babd 819b fa3d 05c2 353e 4b06 10be
00000130: 8d8f 05bc 834f 21be ff7e 8bbe 31a1 38be
00000140: b5e2 07bc ce3c 093e 6ff2 1dbe fa9e 8cbe
00000150: 48ac fe3d 9fce af3e 125d 233d a652 423e
00000160: 64e1 ca3d de28 4d3d 5603 513d c1c9 b33d
00000170: a059 94be d595 96bd 1fe7 0e3e 155e 3c3e
00000180: 8bc5 943d fa19 24bc 3d5b 383e 97b1 093e
00000190: 8335 8c3c 3a48 71be e7c1 3bbb 71ae 783c
000001a0: e7a6 973a 2be8 663e 94d1 543b 4f86 89be
000001b0: a27a b0be 835d abbd e47f bd3d 4e1a 80be
000001c0: e30b 133d 10a7 d13d 3c64 f93b 286f 0e3d
000001d0: 71ba 273e 0bec 82bd 94f7 7fbe 9fca 9e3d
000001e0: 8f07 65be c88c 93be 21d5 353e 0beb cabd
000001f0: e350 b53d 23eb dbbe 7c28 76be ec56 723e
00000200: e38c a2be 60f6 7bbe e239 8dbd eeb5 b83d
00000210: 1de1 103d 1c6f 84be b2fe cdbe 30c7 93bd
00000220: 0dcc 7bbc 9d53 a73e 37ed 64bd ae5d c3bd
00000230: 604e 8e3e 8d38 02be b05c ffbe b6b3 40bf
00000240: 1616 88be 3d7b 403d a865 9b3e f26a 50be
00000250: 02ff 813e 747c 503e a87a 1ebc 02ee df3d
00000260: 6167 013e 0d0b 56be 6f01 88bd f6e8 babc
00000270: 0b6f 933a a61b a1bd b674 173e 2a77 cabe
00000280: f2b8 c33d a2b4 353e eb6d fb3d 8fee 3a3e
00000290: a930 a9be 67b9 6cbe fc9b 813e bb83 8dbe
000002a0: f828 4f3e 5609 59bd 27c0 053f fb05 383e
000002b0: 8f5d 77bc fc2b 54bd 9d04 093d 5ccf c23e
000002c0: 665e 8cbe b514 fd3d 0716 86bd 20da bd3d
000002d0: 2e92 44be a6fe 4fbe 0db5 093f 560b 023e
000002e0: d3c7 8fbe 0763 453e efe0 083e f3f5 6abd
000002f0: 4dd8 43bd 7000 b13e 2e83 a3be 99c2 8c3e
00000300: e94d 713c 2b0d 8b3d f226 1fbc f6c5 e8bd
00000310: 1d68 d2bd 101b ff3a 3222 95bd 8947 1f3c
00000320: 87c4 8cbc 8e6e 173d 4264 aa3d ed88 5b3d
00000330: 9737 bc3d 075e e4bc f978 0f3d 10d0 8dbd
00000340: 5945 a03d db83 09bd 78a8 43bc a321 b63d
00000350: 3dd7 9bbd 861f 0c3e 49bc 6dbd 5647 91bb
00000360: 4f69 0ebd 8473 cabd 5b6b 0ebd 84c0 513d
00000370: 3a4b 013e 4844 a8bd dcbe ffbd a091 133e
00000380: 69e3 dbbd dd61 5c3d 9cd4 cbbd b50b 11bd
00000390: 427b 6cbd 9231 a23c 3014 aabb 1e42 073c
000003a0: d3a0 1cbe e8a4 323d 0959 293e fabb e1bd
000003b0: 3c2b 923d 87ad 05be 8c07 183e 224e 7cbc
000003c0: 1b0d 85bd 5222 00be 8121 4e3e 48b2 4dbd
000003d0: 6734 6c3c b6f5 49bd 9a9a a93d 5807 133d
000003e0: 9773 81bd 4230 00be f7ab a8bd 9fa5 23be
000003f0: 1e3c 46be 3232 e73c 1b91 72bd 2821 1b3d

fc3.bias f4 [64]
0.088051364 0.7027414 -0.11077897 -0.17431387 -0.06764901 0.09631191 -0.09962089 -0.121500306
-0.19560489 0.7748191 0.4582799 -0.009867467 0.32687756 0.16714354 -0.039852083 0.13268788
-0.14762579 0.13014844 -0.1887293 0.76142246 0.0028742861 0.09037298 -0.2241778 0.034797367
-0.51053864 -0.17948191 -0.24093628 0.76923573 0.14927395 0.7345643 -0.40568104 -0.31231484
0.062637225 0.10347507 0.43645576 0.031041935 -0.34117764 0.38142332 0.55954236 -0.14135417
-0.3308379 0.34066767 0.37791198 -0.04346841 -0.11494482 0.09746329 0.018713372 0.19318427
0.18309432 0.64620113 0.2091337 0.028340802 -0.16397122 -0.001710367 0.6648523 0.19310483
0.43782967 -0.108441964 0.80739105 -0.001993973 -0.077444255 0.34326315 -0.1040908 0.02411971
00000000: 4654 b43d dce6 333f 16e0 e2bd 567f 32be
00000010: 908b 8abd 2e3f c53d 0a06 ccbd 27d5 f8bd
00000020: a64c 48be 8b5a 463f aaa3 ea3e 28ab 21bc
00000030: 7f5c a73e ad27 2b3e f03b 23bd 55df 073e
00000040: 372b 17be a245 053e 4142 41be 95ec 423f
00000050: 855e 3c3b 7815 b93d dd8e 65be af87 0e3d
00000060: a9b2 02bf 1bca 37be 00b8 76be a2ec 443f
00000070: 45db 183e 680c 3c3f 6db5 cfbe bbe7 9fbe
00000080: f247 803d bdea d33d 2177 df3e a84b fe3c
00000090: d6ae aebe eb49 c33e 2b3e 0f3f 26bf 10be
000000a0: 9663 a9be fe6b ae3e ae7d c13e ee0b 32bd
000000b0: 3168 ebbd d59a c73d c94c 993c 19d2 453e
000000c0: 147d 3b3e 706d 253f 2527 563e f82a e83c
000000d0: 12e8 27be 652e e0ba c333 2a3f 46bd 453e
000000e0: 362b e03e d216 debd 2eb1 4e3f 51ad 02bb
000000f0: 189b 9ebd 30c0 af3e 8f2d d5bd b396 c53c

fc4.weight f4 [4, 64]
0.35447648 0.21351257 -0.0701023 0.059967928 -0.108026825 0.25615415 0.20324151 -0.20281824
-0.28509152 0.31007606 0.19720146 -0.15923053 0.3187404 0.09042796 -0.15584011 0.19204631
0.0023905635 -0.22746868 0.21049957 0.258041 0.26874095 0.4453657 -0.36154348 0.15665595
-0.3156894 -0.12966742 -0.046207007 0.25724894 0.12897621 0.32777995 -0.3519308 -0.12811218
-0.05909635 0.26882663 0.16385444 0.1823496 -0.14748302 0.10986733 0.19883849 0.120323196
-0.36743298 0.20429498 0.19645078 0.119214535 0.043397065 0.07036982 -0.5046381 0.21154219
0.11020847 0.31471428 0.17948468 0.15208715 -0.46534923 0.261971 0.48362818 0.31722218
0.32059225 -0.07221236 0.26211044 0.29515952 -0.21434139 0.14427377 0.12880424 -0.59803444
0.37577015 0.27408576 0.12466492 0.030232506 -0.060216792 0.12766077 -0.45672497 0.20173183
-0.33554652 0.16082713 0.3169305 -0.30926603 0.1970544 0.17829622 -0.17593314 0.47324896
0.02518025 0.23117775 -0.038392905 0.30973816 0.2740605 0.37119207 -0.11093576 0.021986105
-0.27154619 -0.04444535 -0.15448755 0.3166658 0.279049 0.32044822 -0.3171356 0.16696338
0.21716662 0.19513245 0.11887224 0.06994871 -0.014196911 0.28521132 0.31500724 0.45200887
-0.18375956 0.13424806 0.3114692 -0.15064277 -0.041349586 0.027684273 0.3305225 0.13026504
0.19309986 0.13992122 0.09136017 0.41917846 -0.23010239 0.1859243 0.30500987 0.3460399
0.49909484 -0.00092262495 0.24766721 0.54270226 -0.08767076 0.18362239 -0.35459247 0.3165628
0.3950202 0.24642608 -0.05231329 0.09038456 -0.102120675 0.07964511 0.1115976 -0.32419753
-0.023177307 0.34871078 0.23109297 -0.11303132 0.26732966 0.24864948 -0.25068584 0.063552044
-0.05090781 0.3043613 0.19647641 0.32681617 -0.20889658 -0.2697325 0.14835021 0.43425772
-0.634244 0.52926356 0.04900208 0.26859087 0.061176922 0.23641297 -0.1960837 0.1274688
0.27807465 -0.54472935 0.23330106 0.20062025 0.008231541 0.20667118 0.14875835 -0.23894086
-0.29353 0.13207057 0.48666435 0.19520392 0.016341647 -0.21127571 0.003237152 -0.13483751
0.15893725 0.27999303 -0.31687987 -0.112227246 0.018197726 0.1514262 0.37050202 0.3261664
0.14330848 -0.005879901 0.26128897 0.15422356 -0.17400095 0.07762607 -0.3481263 0.18120545
0.060559027 0.3677137 0.19606201 0.04831093 -0.08430261 -0.06497875 -0.085339874 0.26209196
-0.22773291 0.34259093 0.31985593 0.28306934 -0.046130076 0.12097284 -0.34709516 -0.057151407
-0.117016315 0.142508 -0.5282646 0.23027736 0.31347457 0.4357885 -0.36648887 -0.16557358
-0.3287173 -0.27231932 -0.5858314 0.25258246 -0.642423 0.27911094 -0.33377793 -0.41419208
0.13170345 0.5946122 0.2640681 0.0980493 -0.30500114 -0.09652612 0.23699534 0.01246261
-0.08292199 0.20740278 0.39702955 0.044244755 0.098199174 -0.0029919872 0.08897448 0.101451226
0.1986768 0.20975661 -0.5030565 -0.065448195 -0.34854466 -0.30132732 0.24254388 0.35334912
0.41147545 -0.043165676 0.35367635 0.16204195 -0.63645214 0.21319272 0.2064701 0.22276896
00000000: f17d b53e 0aa3 5a3e cb91 8fbd eea0 753d
00000010: 2b3d ddbd a326 833e 8b1e 503e 96af 4fbe
00000020: 84f7 91be 4ac2 9e3e 2eef 493e 540d 23be
00000030: f131 a33e 4b32 b93d 8d94 1fbe caa7 443e
00000040: 00ab 1c3b 8ded 68be 338d 573e f31d 843e
00000050: 6a98 893e f906 e43e 3a1c b9be 6b6a 203e
00000060: 0ba2 a1be 89c7 04be 8f43 3dbd 22b6 833e
00000070: 5712 043e c6d2 a73e 4630 b4be d72f 03be
00000080: 040f 72bd a5a3 893e 75c9 273e dbb9 3a3e
00000090: ca05 17be 1f02 e13d 519c 4b3e 026c f63d
000000a0: 2d20 bcbe b432 513e 652a 493e c026 f43d
000000b0: 1fc1 313d 0d1e 903d f62f 01bf 849e 583e
000000c0: fab4 e13d 3b22 a13e d5ca 373e bcbc 1b3e
000000d0: 4142 eebe 1021 863e 1d9e f73e f26a a23e
000000e0: ab24 a43e 13e4 93bd 5733 863e 261f 973e
000000f0: 4f7c 5bbe 81bc 133e 42e5 033e c918 19bf
00000100: f264 c03e f854 8c3e 5250 ff3d 29aa f73c
00000110: e2a5 76bd 81b9 023e dbd7 e9be ca92 4e3e
00000120: c1cc abbe deaf 243e b744 a23e 1e58 9ebe
00000130: a1c8 493e 4993 363e d127 34be b04d f23e
00000140: d046 ce3c dcb9 6c3e e141 1dbd 0096 9e3e
00000150: a851 8c3e e30c be3e 4a32 e3bd 341c b43c
00000160: 1a08 8bbe 540c 36bd fc31 1ebe 0522 a23e
00000170: 83df 8e3e ca11 a43e 995f a2be 73f8 2a3e
00000180: ed60 5e3e cdd0 473e 4a73 f33d 4541 8f3d
00000190: 299a 68bc 3807 923e a148 a13e b56d e73e
000001a0: 772b 3cbe 5378 093e e478 9f3e 1942 1abe
000001b0: 2f5e 29bd 21ca e23c 3f3a a93e 3364 053e
000001c0: f8bb 453e 8247 0f3e 0a1b bb3d 8f9e d63e
000001d0: f69f 6bbe f162 3e3e 412a 9c3e 242c b13e
000001e0: 5c89 ff3e 50dc 71ba 799c 7d3e 89ee 0a3f
000001f0: ba8c b3bd 8207 3c3e 258d b5be 8514 a23e
00000200: 1640 ca3e 1e57 7c3e 7646 56bd 8a1b b93d
00000210: a524 d1bd fa1c a33d 488d e43d 38fd a5be
00000220: 56de bdbc 388a b23e a3a3 6c3e f77c e7bd
00000230: 6fdf 883e f89d 7e3e e559 80be 9327 823d
00000240: b584 50bd 3fd5 9b3e 1d31 493e 7354 a73e
00000250: fce8 55be 611a 8abe 1ee9 173e 0757 de3e
00000260: d15d 22bf d17d 073f 68b6 483d be84 893e
00000270: a794 7a3d 3e16 723e 2aca 48be 2e87 023e
00000280: cd5f 8e3e 6273 0bbf 79e6 6e3e 656f 4d3e
00000290: 96dd 063c 9ca1 533e 1c54 183e eaac 74be
000002a0: 9049 96be 823d 073e 122c f93e 89e3 473e
000002b0: ebde 853c a958 58be 6626 543b d812 0abe
000002c0: 72c0 223e 3f5b 8f3e 143e a2be 66d7 e5bd
000002d0: 6613 953c 780f 1b3e 71b2 bd3e 48ff a63e
000002e0: 75bf 123e 2fac c0bb abc7 853e c8ec 1d3e
000002f0: 4e2d 32be 6bfa 9e3d 9c3d b2be ec8d 393e
00000300: be0c 783d f844 bc3e 7bc4 483e afe1 453d
00000310: d9a6 acbd 9413 85bd acc6 aebd eb30 863e
00000320: d132 69be 1468 af3e 28c4 a33e 77ee 903e
00000330: e4f2 3cbd 9cc0 f73d 75b6 b1be 9817 6abd
00000340: 40a6 efbd 9eed 113e 593c 07bf d4cd 6b3e
00000350: bd7f a03e ac1f df3e 6ea4 bbbe 1f8c 29be
00000360: a24d a8be 706d 8bbe 0cf9 15bf 7d52 813e
00000370: d575 24bf a1e7 8e3e f1e4 aabe fc10 d4be
00000380: 45dd 063e 8138 183f ef33 873e 12ce c83d
00000390: 1c29 9cbe 7daf c5bd e8ae 723e fa2f 4c3c
000003a0: 01d3 a9bd 6561 543e 7547 cb3e fd39 353d
000003b0: a61c c93d 3715 44bb 4138 b63d a9c5 cf3d
000003c0: ee71 4b3e 70ca 563e 50c8 00bf b409 86bd
000003d0: 7274 b2be 9347 9abe 6c5d 783e 2dea b43e
000003e0: e9ac d23e 7ece 30bd 1115 b53e 53ee 253e
000003f0: 87ee 22bf 314f 5a3e e66c 533e 8c1d 643e

fc4.bias f4 [4]
0.4886151 0.38138327 0.47659785 0.37513596
00000000: c22b fa3e ab44 c33e a204 f43e d211 c03e
